fpgaconvnet/tutorial/1_simple_end_to_end/hardware-tutorial-assets/host-code/MNIST/single_layer_new_optimized.onnx (onnx, 2046 bytes, 2 tensors)

0.weight f4 [16, 1, 5, 5]
00000000: f32d d4bd 8319 aebd 8865 293e 206a 4b3e
00000010: 67b3 643d 489f 4a3e 6031 99bd c5fd 37be
00000020: 07ed c7bd 605e 0cbe 1a17 813d bbdc 3f3e
00000030: edd7 13be 1a98 dd3c c052 efbd 1a6d b4bc
00000040: 6744 f4bd ba5a 9bbd 5048 a5bd 37c4 40be
00000050: d857 08be 2708 fd3c 2d70 a8bd f859 243e
00000060: 8dd3 9a3d 1334 69bd a7ed 133e 9a43 ed3b
00000070: f0bb 3e3e d337 10be 27fc 2abd f8bf 38be
00000080: 77ca b83d e5da 18be a747 a5bc 27de 8f3d
00000090: 9d08 2f3e b8af 14be cdc7 4d3d 9a43 d8bd
000000a0: 1a5e 2b3e a79b 26bd 1a69 9f3d 4347 88bd
000000b0: 4dfd 02be 0af9 0dbe 67bc 3d3d e75d 8b3c
000000c0: ab41 33be 33e2 a43d 8057 d63d 7dab 95bd
000000d0: e08c 65bd 75ff 133e 0d2e 40bd 7ace 0bbe
000000e0: 5d34 413e 5831 413e fb46 213e 6d65 47be
000000f0: 8343 153e 5a0c d3bd ab04 373e 43e2 433e
00000100: 3044 8a3d 1a8b adbc 80de 1dbe 1a06 6abc
00000110: 402e c63c 92d3 44be 0339 2b3e 9a7b 763b
00000120: b59d 423e 1811 383e 6025 8bbd 5a60 f4bc
00000130: 40f0 153e 8d66 eebc 9ac3 47be 9f6b 213e
00000140: e352 823d f3e7 10be 3301 8ebb 2b06 20be
00000150: 4727 483e c018 d73d 733a 3abd ca46 24be
00000160: 33f9 de3b c0a2 f6bd 2b0d 39be 5aeb ccbc
00000170: 674e 26ba 174a 833d 4714 5f3d 3d65 49be
00000180: 30fb fe3d 220c 213e fa47 d93d dbb9 2a3e
00000190: d04c efbd e24b 3d3e f203 01be 3a4a dd3d
000001a0: cd6c cf3d abcc 08be d08d 8bbd 1a1e f23c
000001b0: 838b abbd 5aef 15be faaa 39bd 33d4 253d
000001c0: f0a9 303e 00ad 12bc 60ac 2c3e 1fc8 0d3e
000001d0: f306 da3c aa94 393e 270d e03c 137c 023d
000001e0: 8a01 40be 5397 f73d 004b 4c3c c25e 023e
000001f0: a769 813c 2007 5b3d 98e5 0d3e 1f4a 0b3e
00000200: 0da2 66bd 00bd 5abc 57cc ecbd b31d d5bd
00000210: 57f0 f43d e7e2 48bc 1261 10be d3e8 3d3e
00000220: a005 67bd c35b 0abe d3a6 42be 08be 2a3e
00000230: 9d11 19be e71d b03d 9fb8 2d3e 0ffb 223e
00000240: eb73 103e 420f 37be cd3c 053a cd06 cbbc
00000250: 1732 34be e899 08be adef 993d 1377 d7bd
00000260: f37c e5bc 50ba 4b3e 802b c9bc ba14 023e
00000270: 731b 303e 2de4 45be 6a54 8f3d ed22 a7bd
00000280: a758 0fbd 2d6e 323e cd4a 2dbe a8ce 09be
00000290: 05ba 06be 1700 363e 7ade ca3d 4d94 eb3d
000002a0: cdae bb3c 5a82 653d ba33 e4bd 3035 05be
000002b0: 4adc d5bd 9acf 3dbc b7de ffbd cdd0 d8ba
000002c0: e71c 823d 905f 353e fa6e 353e 9253 053e
000002d0: 0738 073e 0030 103e e7d9 edbc 93fe 073e
000002e0: 9d16 f1bd 67ee 403c 4363 a1bd b59e 4bbe
000002f0: 8752 273d cd03 2bbe cd7c a73d 0f4f 39be
00000300: 4d8d 993c 12d6 2b3e f891 24be 3df5 83bd
00000310: 27da c43c 6f15 243e 73d3 38bd edf0 36bd
00000320: 80b2 f4bc 8798 81bd fa74 a13d 5af4 153d
00000330: e786 dcbc 0378 3d3e 00cf b63c 5a47 26bd
00000340: dd85 0abe cd77 b2bc df7d 213e aa11 883d
00000350: 4fa5 39be 5d8e 46be 5abd fdbd 4a93 e0bd
00000360: 0f5b 3d3e 33c9 f03c 6d1e e93d 500c 8d3d
00000370: 2d35 37bd 45f3 40be a03e 4b3e 0026 733b
00000380: da70 b8bd 3309 6abd 333b 963a b34c 21bd
00000390: 9a98 7e3c 8d82 eb3d 13d1 e03d d33b 763d
000003a0: 2716 9d3c 4da6 593c e7dc 37bd 87da edbd
000003b0: 53b8 dbbd 3324 343d 6245 2f3e 8af0 16be
000003c0: 57cf b03d 4f67 23be 4db4 833d f3dc acbd
000003d0: 0bdf 3cbe 9279 2c3e 7a63 253e d3f8 b0bd
000003e0: 3f6e 07be 05da 483e 4002 353e fa6d 323d
000003f0: 00f8 503c 677a 163b a035 943d 1d5c ff3d
-0.103603266 -0.0850096 0.16542637 0.19864702 0.055835154 0.19787323 -0.07480121 -0.17967899
-0.09762006 -0.13707876 0.063032344 0.18736546 -0.14437838 0.027050067 -0.11685705 -0.02202468
-0.11927109 -0.07585664 -0.08070433 -0.1882485 -0.1331476 0.030887676 -0.08224521 0.16049945
0.07559881 -0.056934427 0.14446126 0.0072407247 0.1862638 -0.14083795 -0.041744377 -0.1804198
0.09022992 -0.14927252 -0.020175768 0.07024794 0.1709313 -0.14520156 0.050239373 -0.10559769
0.16735116 -0.040675785 0.077837184 -0.06654217 -0.12791939 -0.13864532 0.046322253 0.01701255
-0.17505519 0.080509566 0.10465908 -0.073080994 -0.056042552 0.14452918 -0.046918917 -0.13652983
0.18867631 0.1886648 0.15749733 -0.19472285 0.14576535 -0.1030509 0.17872874 0.19129281
0.06751287 -0.021184493 -0.15416908 -0.014283681 0.024191976 -0.19221333 0.16720967 0.0037610293
0.19005473 0.17975271 -0.06794238 -0.0298311 0.1464243 -0.029101634 -0.1950821 0.1576371
0.06363466 -0.14150982 -0.004333639 -0.15627353 0.19546233 0.105027676 -0.045465898 -0.16042629
0.006804609 -0.12042761 -0.1807143 -0.025014568 -0.00063440803 0.06410616 0.054462697 -0.19667526
0.12450254 0.15727285 0.106094316 0.1667246 -0.11684573 0.18485978 -0.12599161 0.10805173
0.10128174 -0.13359325 -0.06814158 0.02955537 -0.08376219 -0.14642087 -0.04532907 0.040485572
0.17252326 -0.008952379 0.16862631 0.13845871 0.026614642 0.18123117 0.027350022 0.031856608
-0.18750587 0.1208941 0.012469053 0.1273146 0.01579745 0.05347359 0.13857114 0.13602494
-0.056306887 -0.013350725 -0.11562412 -0.10406055 0.11959904 -0.012261129 -0.1409953 0.18545847
-0.05640185 -0.13511567 -0.19008951 0.16674054 -0.14948125 0.085994534 0.16964959 0.15916084
0.14106719 -0.17876914 0.00050826074 -0.024783516 -0.17597233 -0.1333996 0.07516418 -0.105207585
-0.028013682 0.19895291 -0.024556875 0.12703219 0.17197971 -0.19325323 0.069985226 -0.081609584
-0.034996655 0.17424841 -0.16923065 -0.1345774 -0.13156898 0.17773472 0.09905715 0.115028955
0.0229105 0.056032516 -0.111426786 -0.1300857 -0.104424074 -0.011585141 -0.12493651 -0.001654172
0.06353169 0.17712235 0.17718115 0.13020161 0.13204966 0.1408081 -0.029034568 0.13280706
-0.11771891 0.01177559 -0.07880261 -0.1988476 0.04085019 -0.16700669 0.08178101 -0.18096565
0.018744135 0.1678088 -0.16071308 -0.0644326 0.024029804 0.16023801 -0.04512353 -0.04466336
-0.029870272 -0.063279204 0.0788364 0.036609985 -0.026919795 0.18502812 0.022315502 -0.04059539
-0.13527627 -0.021785641 0.15770672 0.06643994 -0.18129466 -0.19390245 -0.123896316 -0.10965593
0.18491767 0.029392814 0.113827564 0.06887114 -0.044728447 -0.188428 0.19848108 0.0037101507
-0.090059 -0.05713768 0.0011461735 -0.039379787 0.015539313 0.1149951 0.10977378 0.060115647
0.019175602 0.013284278 -0.044888403 -0.116139464 -0.107285164 0.043979835 0.17116311 -0.14740196
0.08633297 -0.15957378 0.06430874 -0.0844058 -0.18444459 0.1684325 0.16151229 -0.086412095
-0.1322565 0.19614418 0.1767664 0.043561913 0.01275444 0.002296114 0.07236791 0.12468741

0.bias f4 [16]
00000000: 3fed 323e 72bd 403e 4db7 21bc 7313 20be
00000010: cd7a 0bbc 775c 03be c751 413e bf8a 1d3e
00000020: 70fa 9b3d 77c9 82bd 2a48 39be c06f 00be
00000030: 87d6 4dbd 7dbe 0cbe 20a7 42bd 1d74 2ebe
0.17473315 0.18822268 -0.0098703625 -0.1563242 -0.008513165 -0.12828241 0.18878852 0.15384959
0.076161265 -0.063860826 -0.18093935 -0.12542629 -0.050253417 -0.1374454 -0.047522664 -0.17036481
